…
   Hidden Block 1: Dense(256) → BatchNorm → ReLU → Dropout(0.3)
   Hidden Block 2: Dense(128) → BatchNorm → ReLU → Dropout(0.3)
   Hidden Block 3: Dense(64)  → BatchNorm → ReLU → Dropout(0.2)
   Hidden Block 4: Dense(32)  → BatchNorm → ReLU → Dropout(0.2)
   Output Layer  : Dense(6) → Softmax
Model: "WineQuality_DNN"
┏━━━━━━━━━━━━━━━━━━━━━━━━━━━━━━━━━━━━━━┳━━━━━━━━━━━━━━━━━━━━━━━━━━━━━┳━━━━━━━━━━━━━━━━━┓
┃ Layer (type)                         ┃ Output Shape                ┃         Param # ┃
┡━━━━━━━━━━━━━━━━━━━━━━━━━━━━━━━━━━━━━━╇━━━━━━━━━━━━━━━━━━━━━━━━━━━━━╇━━━━━━━━━━━━━━━━━┩
│ dense_block1 (Dense)                 │ (None, 256)                 │           3,072 │
├──────────────────────────────────────┼─────────────────────────────┼─────────────────┤
│ bn_block1 (BatchNormalization)       │ (None, 256)                 │           1,024 │
├──────────────────────────────────────┼─────────────────────────────┼─────────────────┤
│ relu_block1 (Activation)             │ (None, 256)                 │               0 │
├──────────────────────────────────────┼─────────────────────────────┼─────────────────┤
│ dropout_block1 (Dropout)             │ (None, 256)                 │               0 │
├──────────────────────────────────────┼─────────────────────────────┼─────────────────┤
│ dense_block2 (Dense)                 │ (None, 128)                 │          32,896 │
├──────────────────────────────────────┼─────────────────────────────┼─────────────────┤
│ bn_block2 (BatchNormalization)       │ (None, 128)                 │             512 │
├──────────────────────────────────────┼─────────────────────────────┼─────────────────┤
│ relu_block2 (Activation)             │ (None, 128)                 │               0 │
├──────────────────────────────────────┼─────────────────────────────┼─────────────────┤
│ dropout_block2 (Dropout)             │ (None, 128)                 │               0 │
├──────────────────────────────────────┼─────────────────────────────┼─────────────────┤
│ dense_block3 (Dense)                 │ (None, 64)                  │           8,256 │
├──────────────────────────────────────┼─────────────────────────────┼─────────────────┤
│ bn_block3 (BatchNormalization)       │ (None, 64)                  │             256 │
├──────────────────────────────────────┼─────────────────────────────┼─────────────────┤
│ relu_block3 (Activation)             │ (None, 64)                  │               0 │
├──────────────────────────────────────┼─────────────────────────────┼─────────────────┤
│ dropout_block3 (Dropout)             │ (None, 64)                  │               0 │
├──────────────────────────────────────┼─────────────────────────────┼─────────────────┤
│ dense_block4 (Dense)                 │ (None, 32)                  │           2,080 │
├──────────────────────────────────────┼─────────────────────────────┼─────────────────┤
│ bn_block4 (BatchNormalization)       │ (None, 32)                  │             128 │
├──────────────────────────────────────┼─────────────────────────────┼─────────────────┤
│ relu_block4 (Activation)             │ (None, 32)                  │               0 │
├──────────────────────────────────────┼─────────────────────────────┼─────────────────┤
│ dropout_block4 (Dropout)             │ (None, 32)                  │               0 │
├──────────────────────────────────────┼─────────────────────────────┼─────────────────┤
│ output_softmax (Dense)               │ (None, 6)                   │             198 │
└──────────────────────────────────────┴─────────────────────────────┴─────────────────┘
 Total params: 48,422 (189.15 KB)
 Trainable params: 47,462 (185.40 KB)
 Non-trainable params: 960 (3.75 KB)

   📐 Tổng tham số: 48,422

⚙️  Cấu hình huấn luyện:
   Optimizer     : Adam (lr=0.001)
   Loss Function : categorical_crossentropy
   Batch Size    : 32
   Max Epochs    : 300
   Early Stopping: patience=20 (dừng khi val_loss không giảm)
…
